…
        "return_value": "",
        "parameters": "modules (iterable, optional) – an iterable of modules to add\n\n\n>>> import oneflow.nn as nn\n\n>>> class MyModule(nn.Module):\n...    def __init__(self):\n...        super(MyModule, self).__init__()\n...        self.linears = nn.ModuleList([nn.Linear(10, 10) for i in range(10)])\n...    def forward(self, x):\n...        # ModuleList can act as an iterable, or be indexed using ints\n...        for i, l in enumerate(self.linears):\n...            x = self.linears[i // 2](x) + l(x)\n...        return x\n\n>>> model = MyModule()\n>>> model.linears\nModuleList(\n  (0): Linear(in_features=10, out_features=10, bias=True)\n  (1): Linear(in_features=10, out_features=10, bias=True)\n  (2): Linear(in_features=10, out_features=10, bias=True)\n  (3): Linear(in_features=10, out_features=10, bias=True)\n  (4): Linear(in_features=10, out_features=10, bias=True)\n  (5): Linear(in_features=10, out_features=10, bias=True)\n  (6): Linear(in_features=10, out_features=10, bias=True)\n  (7): Linear(in_features=10, out_features=10, bias=True)\n  (8): Linear(in_features=10, out_features=10, bias=True)\n  (9): Linear(in_features=10, out_features=10, bias=True)\n)\n\n\n\n",
        "input_shape": "",
        "notes": "",
        "code_example": ""
    },
    {
        "api_name": "oneflow.nn.ModuleDict",
        "api_url": "https://oneflow.readthedocs.io/en/master/generated/oneflow.nn.ModuleDict.html",
        "api_signature": "oneflow.nn.ModuleDict(modules: Optional[Mapping[str, oneflow.nn.modules.module.Module]] = None)",
…
